…
+    "# 127x127x32\n",
+    "# 63x63x32\n",
+    "# 31x31x32\n",
+    "# 15x15x32\n",
+    "# 7x7x32\n",
+    "# Decoder:\n",
+    "# 7x7x32\n",
+    "# 9x9x32\n",
+    "# 19x19x32\n",
+    "# 39x39x32\n",
+    "# 79x79x32\n",
+    "# 159x159x32\n",
+    "# 319x319x32\n",
+    "# 639x639x3 (Output Image)\n"
    ]
   },
   {
@@ -583,22 +7166,78 @@
   },
   {
    "cell_type": "code",
-   "execution_count": null,
+   "execution_count": 17,
    "id": "cb3976cf",
    "metadata": {},
-   "outputs": [],
+   "outputs": [
+    {
+     "data": {
+      "text/plain": [
+       "VAE(\n",
+       "  (encConv1): Conv2d(3, 32, kernel_size=(3, 3), stride=(1, 1), padding=(1, 1))\n",
+       "  (encBn1): BatchNorm2d(32, eps=1e-05, momentum=0.1, affine=True, track_running_stats=True)\n",
+       "  (encConv2): Conv2d(32, 32, kernel_size=(3, 3), stride=(2, 2))\n",
+       "  (encBn2): BatchNorm2d(32, eps=1e-05, momentum=0.1, affine=True, track_running_stats=True)\n",
+       "  (encConv3): Conv2d(32, 32, kernel_size=(3, 3), stride=(2, 2))\n",
+       "  (encBn3): BatchNorm2d(32, eps=1e-05, momentum=0.1, affine=True, track_running_stats=True)\n",
+       "  (encConv4): Conv2d(32, 32, kernel_size=(3, 3), stride=(2, 2))\n",
+       "  (encBn4): BatchNorm2d(32, eps=1e-05, momentum=0.1, affine=True, track_running_stats=True)\n",
+       "  (encConv5): Conv2d(32, 32, kernel_size=(3, 3), stride=(2, 2))\n",
+       "  (encBn5): BatchNorm2d(32, eps=1e-05, momentum=0.1, affine=True, track_running_stats=True)\n",
+       "  (encConv6): Conv2d(32, 32, kernel_size=(3, 3), stride=(2, 2))\n",
+       "  (encBn6): BatchNorm2d(32, eps=1e-05, momentum=0.1, affine=True, track_running_stats=True)\n",
+       "  (encConv7): Conv2d(32, 32, kernel_size=(3, 3), stride=(2, 2))\n",
+       "  (encBn7): BatchNorm2d(32, eps=1e-05, momentum=0.1, affine=True, track_running_stats=True)\n",
+       "  (encFC1): Linear(in_features=1568, out_features=256, bias=True)\n",
+       "  (encFC2): Linear(in_features=1568, out_features=256, bias=True)\n",
+       "  (decFC1): Linear(in_features=256, out_features=1568, bias=True)\n",
+       "  (decBn1): BatchNorm1d(1568, eps=1e-05, momentum=0.1, affine=True, track_running_stats=True)\n",
+       "  (decConv1): ConvTranspose2d(32, 32, kernel_size=(3, 3), stride=(2, 2))\n",
+       "  (decBn2): BatchNorm2d(32, eps=1e-05, momentum=0.1, affine=True, track_running_stats=True)\n",
+       "  (decConv2): ConvTranspose2d(32, 32, kernel_size=(3, 3), stride=(2, 2))\n",
+       "  (decBn3): BatchNorm2d(32, eps=1e-05, momentum=0.1, affine=True, track_running_stats=True)\n",
+       "  (decConv3): ConvTranspose2d(32, 32, kernel_size=(3, 3), stride=(2, 2))\n",
+       "  (decBn4): BatchNorm2d(32, eps=1e-05, momentum=0.1, affine=True, track_running_stats=True)\n",
+       "  (decConv4): ConvTranspose2d(32, 32, kernel_size=(3, 3), stride=(2, 2))\n",
+       "  (decBn5): BatchNorm2d(32, eps=1e-05, momentum=0.1, affine=True, track_running_stats=True)\n",
+       "  (decConv5): ConvTranspose2d(32, 32, kernel_size=(3, 3), stride=(2, 2))\n",
+       "  (decBn6): BatchNorm2d(32, eps=1e-05, momentum=0.1, affine=True, track_running_stats=True)\n",
+       "  (decConv6): ConvTranspose2d(32, 32, kernel_size=(3, 3), stride=(2, 2), padding=(1, 1), output_padding=(1, 1))\n",
+       "  (decBn7): BatchNorm2d(32, eps=1e-05, momentum=0.1, affine=True, track_running_stats=True)\n",
+       "  (decConv7): ConvTranspose2d(32, 3, kernel_size=(3, 3), stride=(1, 1))\n",
+       ")"
+      ]
+     },
+     "execution_count": 17,
+     "metadata": {},
+     "output_type": "execute_result"
+    }
+   ],
    "source": [
     "model.eval()"
    ]
   },
   {
    "cell_type": "code",
-   "execution_count": null,
+   "execution_count": 18,
    "id": "fe9514ab",
    "metadata": {
     "scrolled": true
    },
-   "outputs": [],
…
