…
+      "Changed learningrate\n",
+      "Epoch 8 | Loss: 83873.37109375 | V_Loss: 84065.28671875 | MAE: 84065.28671875\n",
+      "Epoch 9 | Loss: 83577.9796875 | V_Loss: 83013.807421875 | MAE: 83013.807421875\n",
+      "Epoch 10 | Loss: 82484.221875 | V_Loss: 82221.144140625 | MAE: 82221.144140625\n"
      ]
     }
    ],
@@ -682,22 +682,75 @@
   },
   {
    "cell_type": "code",
-   "execution_count": null,
+   "execution_count": 17,
    "id": "cb3976cf",
    "metadata": {},
-   "outputs": [],
+   "outputs": [
+    {
+     "data": {
+      "text/plain": [
+       "VAE(\n",
+       "  (res_conv1): Conv2d(3, 32, kernel_size=(1, 1), stride=(1, 1))\n",
+       "  (encConv1): Conv2d(3, 32, kernel_size=(3, 3), stride=(1, 1), padding=(1, 1))\n",
+       "  (encBn1): BatchNorm2d(32, eps=1e-05, momentum=0.1, affine=True, track_running_stats=True)\n",
+       "  (encConv2): Conv2d(32, 32, kernel_size=(3, 3), stride=(2, 2))\n",
+       "  (encBn2): BatchNorm2d(32, eps=1e-05, momentum=0.1, affine=True, track_running_stats=True)\n",
+       "  (encConv3): Conv2d(32, 32, kernel_size=(3, 3), stride=(1, 1), padding=(1, 1))\n",
+       "  (encBn3): BatchNorm2d(32, eps=1e-05, momentum=0.1, affine=True, track_running_stats=True)\n",
+       "  (encConv4): Conv2d(32, 32, kernel_size=(3, 3), stride=(2, 2))\n",
+       "  (encBn4): BatchNorm2d(32, eps=1e-05, momentum=0.1, affine=True, track_running_stats=True)\n",
+       "  (encConv5): Conv2d(32, 32, kernel_size=(3, 3), stride=(2, 2))\n",
+       "  (encBn5): BatchNorm2d(32, eps=1e-05, momentum=0.1, affine=True, track_running_stats=True)\n",
+       "  (encConv6): Conv2d(32, 32, kernel_size=(3, 3), stride=(2, 2))\n",
+       "  (encBn6): BatchNorm2d(32, eps=1e-05, momentum=0.1, affine=True, track_running_stats=True)\n",
+       "  (encConv7): Conv2d(32, 32, kernel_size=(3, 3), stride=(2, 2))\n",
+       "  (encBn7): BatchNorm2d(32, eps=1e-05, momentum=0.1, affine=True, track_running_stats=True)\n",
+       "  (decConv1): ConvTranspose2d(32, 32, kernel_size=(3, 3), stride=(2, 2))\n",
+       "  (decBn2): BatchNorm2d(32, eps=1e-05, momentum=0.1, affine=True, track_running_stats=True)\n",
+       "  (decConv2): ConvTranspose2d(32, 32, kernel_size=(3, 3), stride=(2, 2))\n",
+       "  (decBn3): BatchNorm2d(32, eps=1e-05, momentum=0.1, affine=True, track_running_stats=True)\n",
+       "  (decConv3): ConvTranspose2d(32, 32, kernel_size=(3, 3), stride=(2, 2))\n",
+       "  (decBn4): BatchNorm2d(32, eps=1e-05, momentum=0.1, affine=True, track_running_stats=True)\n",
+       "  (decConv4): ConvTranspose2d(32, 32, kernel_size=(3, 3), stride=(2, 2))\n",
+       "  (decBn5): BatchNorm2d(32, eps=1e-05, momentum=0.1, affine=True, track_running_stats=True)\n",
+       "  (decConv5): ConvTranspose2d(32, 32, kernel_size=(3, 3), stride=(1, 1), padding=(1, 1))\n",
+       "  (decBn6): BatchNorm2d(32, eps=1e-05, momentum=0.1, affine=True, track_running_stats=True)\n",
+       "  (decConv6): ConvTranspose2d(32, 32, kernel_size=(3, 3), stride=(2, 2), output_padding=(1, 1))\n",
+       "  (decBn7): BatchNorm2d(32, eps=1e-05, momentum=0.1, affine=True, track_running_stats=True)\n",
+       "  (decConv7): ConvTranspose2d(32, 3, kernel_size=(3, 3), stride=(1, 1), padding=(1, 1))\n",
+       ")"
+      ]
+     },
+     "execution_count": 17,
+     "metadata": {},
+     "output_type": "execute_result"
+    }
+   ],
    "source": [
     "model.eval()"
    ]
   },
   {
    "cell_type": "code",
-   "execution_count": null,
+   "execution_count": 18,
    "id": "fe9514ab",
    "metadata": {
     "scrolled": true
    },
-   "outputs": [],
…
