…
     "\n",
     "    print(f\"Epoch {e} | Loss: {train_loss} | V_Loss: {val_loss} | MAE: {val_loss}\")\n",
-    "    \n",
-    "# Encoder:\n",
-    "# 512x512x3 (Input Image)\n",
-    "# 512x512x32\n",
-    "# 255x255x32\n",
-    "# 127x127x32\n",
-    "# 63x63x32\n",
-    "# 31x31x32\n",
-    "# 15x15x32\n",
-    "# 7x7x32\n",
-    "# Decoder:\n",
-    "# 7x7x32\n",
-    "# 9x9x32\n",
-    "# 19x19x32\n",
-    "# 39x39x32\n",
-    "# 79x79x32\n",
-    "# 159x159x32\n",
-    "# 319x319x32\n",
-    "# 639x639x3 (Output Image)\n"
+    "    \n"
    ]
   },
   {
@@ -7178,7 +675,7 @@
        "  (encBn1): BatchNorm2d(32, eps=1e-05, momentum=0.1, affine=True, track_running_stats=True)\n",
        "  (encConv2): Conv2d(32, 32, kernel_size=(3, 3), stride=(2, 2))\n",
        "  (encBn2): BatchNorm2d(32, eps=1e-05, momentum=0.1, affine=True, track_running_stats=True)\n",
-       "  (encConv3): Conv2d(32, 32, kernel_size=(3, 3), stride=(2, 2))\n",
+       "  (encConv3): Conv2d(32, 32, kernel_size=(3, 3), stride=(1, 1), padding=(1, 1))\n",
        "  (encBn3): BatchNorm2d(32, eps=1e-05, momentum=0.1, affine=True, track_running_stats=True)\n",
        "  (encConv4): Conv2d(32, 32, kernel_size=(3, 3), stride=(2, 2))\n",
        "  (encBn4): BatchNorm2d(32, eps=1e-05, momentum=0.1, affine=True, track_running_stats=True)\n",
@@ -7188,10 +685,10 @@
        "  (encBn6): BatchNorm2d(32, eps=1e-05, momentum=0.1, affine=True, track_running_stats=True)\n",
        "  (encConv7): Conv2d(32, 32, kernel_size=(3, 3), stride=(2, 2))\n",
        "  (encBn7): BatchNorm2d(32, eps=1e-05, momentum=0.1, affine=True, track_running_stats=True)\n",
-       "  (encFC1): Linear(in_features=1568, out_features=256, bias=True)\n",
-       "  (encFC2): Linear(in_features=1568, out_features=256, bias=True)\n",
-       "  (decFC1): Linear(in_features=256, out_features=1568, bias=True)\n",
-       "  (decBn1): BatchNorm1d(1568, eps=1e-05, momentum=0.1, affine=True, track_running_stats=True)\n",
+       "  (encFC1): Linear(in_features=7200, out_features=256, bias=True)\n",
+       "  (encFC2): Linear(in_features=7200, out_features=256, bias=True)\n",
+       "  (decFC1): Linear(in_features=256, out_features=7200, bias=True)\n",
+       "  (decBn1): BatchNorm1d(7200, eps=1e-05, momentum=0.1, affine=True, track_running_stats=True)\n",
        "  (decConv1): ConvTranspose2d(32, 32, kernel_size=(3, 3), stride=(2, 2))\n",
        "  (decBn2): BatchNorm2d(32, eps=1e-05, momentum=0.1, affine=True, track_running_stats=True)\n",
        "  (decConv2): ConvTranspose2d(32, 32, kernel_size=(3, 3), stride=(2, 2))\n",
@@ -7200,7 +697,7 @@
        "  (decBn4): BatchNorm2d(32, eps=1e-05, momentum=0.1, affine=True, track_running_stats=True)\n",
        "  (decConv4): ConvTranspose2d(32, 32, kernel_size=(3, 3), stride=(2, 2))\n",
        "  (decBn5): BatchNorm2d(32, eps=1e-05, momentum=0.1, affine=True, track_running_stats=True)\n",
-       "  (decConv5): ConvTranspose2d(32, 32, kernel_size=(3, 3), stride=(2, 2))\n",
+       "  (decConv5): ConvTranspose2d(32, 32, kernel_size=(3, 3), stride=(1, 1), padding=(1, 1))\n",
        "  (decBn6): BatchNorm2d(32, eps=1e-05, momentum=0.1, affine=True, track_running_stats=True)\n",
        "  (decConv6): ConvTranspose2d(32, 32, kernel_size=(3, 3), stride=(2, 2), padding=(1, 1), output_padding=(1, 1))\n",
        "  (decBn7): BatchNorm2d(32, eps=1e-05, momentum=0.1, affine=True, track_running_stats=True)\n",
diff --git a/.ipynb_checkpoints/AE_Carla-checkpoint.ipynb b/.ipynb_checkpoints/AE_Carla-checkpoint.ipynb
index d008080..e3b5734 100644
--- a/.ipynb_checkpoints/AE_Carla-checkpoint.ipynb
+++ b/.ipynb_checkpoints/AE_Carla-checkpoint.ipynb
@@ -52,13 +52,13 @@
     "PATH = \"models/\" + MODEL_NAME\n",
     "# IMG_TRAIN = \"/disk/vanishing_data/is789/anomaly_samples/train_set/\"\n",
…
